petnn/weights/best_model.pth (torch, 596341 bytes, 52 tensors)

conv.weight f4 [64, 14, 6]
0	0x3c3e264a	0.0116058085
1	0x3b42d488	0.002972873
2	0x3c33a922	0.010965617
3	0x3c348a07	0.011019236
4	0x3bab6996	0.0052310927
5	0x3d4d3961	0.05010355
6	0xbb639bb7	-0.0034730264
7	0xbb8e0b3e	-0.0043348363
8	0x3ba6f0f0	0.00509464
9	0x3b911cd2	0.0044284845
10	0x3be0f03d	0.006864576
11	0x3c07957d	0.008275387
12	0x3c1b872b	0.009492676
13	0x3b0e88a2	0.002174892
14	0x3b4e4ad3	0.0031477704
15	0x394124d0	0.00018419628
16	0x3aaa5e1b	0.0012998016
17	0x3bdd87e9	0.0067605865
18	0x3d287b91	0.041133467
19	0x3bbe06ec	0.005799165
20	0x3cafbe16	0.021452945
21	0x3c34e740	0.011041462
22	0x3cf2e802	0.029651646
23	0x3daeb320	0.08530259
24	0xbc7c33bc	-0.015393194
25	0x3b239ccc	0.0024965284
26	0x3cb74c21	0.022375168
27	0x3d6e8567	0.05823269
28	0x3d1032db	0.03520475
29	0x3cbac65a	0.02279966
30	0xbc34fe73	-0.011046994
31	0x3cf5a772	0.02998707
32	0x3d6b7a83	0.057489883
33	0x3dd4ccc1	0.10390616
34	0x3dbddd32	0.09270705
35	0x3dd68cbd	0.104760624
36	0xbaebc2c0	-0.0017987117
37	0xbb7a6257	-0.0038205588
38	0x3b884653	0.004158774
39	0xbb0f1275	-0.002183107
40	0x3cc0d2f7	0.023538096
41	0x3a4b6cd5	0.00077600527
42	0xbc4762ed	-0.012169582
43	0xbb2b20a6	-0.002611199
44	0x3b384be2	0.0028121402
45	0xbc40d58a	-0.011769662
46	0x3b41ceb9	0.002957268
47	0x3cb1f03b	0.021720996
48	0x3c663e08	0.014052875
49	0x3a06b2df	0.0005138348
50	0xbb879d3d	-0.0041386173
51	0x3b6aa841	0.0035805854
52	0x39e0cfb4	0.0004287936
53	0x3cb7d256	0.022439163
54	0xbc83dd4d	-0.016096735
55	0xbc60702f	-0.013698622
56	0xbc5f6abe	-0.013636289
57	0xbc81c16b	-0.0158393
58	0xbb89b377	-0.004202302
59	0xbcb08bfd	-0.021551127
60	0x3ca4bbe0	0.020109117
61	0x3c32832a	0.01089553
62	0x3c9e140f	0.019296674
63	0x3c324e10	0.010882869
64	0x3c808a0c	0.015690826
65	0x3c0c609d	0.008567956
66	0x3d05a2e5	0.03262605
67	0x3c990092	0.01867703
68	0x3ca1f00d	0.019767785
69	0x3caa4c56	0.020788353
70	0x3d19f045	0.037582655
71	0x3d0475cc	0.032338902
72	0xbc1be8d4	-0.00951596
73	0xbc7c30d3	-0.0153925
74	0xbc045464	-0.008076761
75	0xbb7cad70	-0.0038555525
76	0xbbbce44a	-0.005764519
77	0xbc5ca5dd	-0.013467279
78	0x3b05b84a	0.0020404034
79	0x3bfba792	0.007679888
80	0xbc097208	-0.008389004
81	0xbc29be7d	-0.010360357
82	0x3b86462b	0.00409772
83	0xbbe708d2	-0.007050612
84	0xbcc604d4	-0.024172224
85	0xbc59b9ab	-0.013288896
86	0x3c0136cf	0.007886603
87	0x3cacf273	0.021111703
88	0x3cd258e5	0.025677154
89	0x3d432f3f	0.04765248
90	0x3c9afd52	0.01891962
91	0x3ae167f1	0.0017197115
92	0x3b2624f8	0.0025351625
93	0x3b770d21	0.0037697034
94	0x3c79de49	0.015250751
95	0xbc7e56bc	-0.015523609
96	0x3c36b623	0.011151823
97	0x3c9c820b	0.019104978
98	0x3bc290f0	0.005937688
99	0x3b429c75	0.0029695306
100	0xbbf427a6	-0.0074510155
101	0xbc50cdec	-0.012744408
102	0xbd60719d	-0.05479585
103	0xbcee30cf	-0.029076008
104	0xbc7ed1d7	-0.015552959
105	0x3c261b90	0.010138407
106	0x3d033c3e	0.032039873
107	0xbc0b27d4	-0.0084933825
108	0xbcf4c738	-0.029880151
109	0xbc85b8ec	-0.01632353
110	0x3af33c84	0.0018557464
111	0x3cc03245	0.02346147
112	0x3c9abe4d	0.01888957
113	0xbc5c400b	-0.013443003
114	0xbc857397	-0.01629047
115	0xbc317f6a	-0.010833601
116	0x3b754365	0.0037424203
117	0x3c83bd13	0.016081369
118	0x3c4e1f6a	0.012580732
119	0xbd0332b7	-0.032030787
120	0x3b9c7648	0.0047748424
121	0x3a06e7ef	0.0005146255
122	0xb7ad571e	-2.0663774e-05
123	0xba7c473a	-0.00096236507
124	0xbbe23fec	-0.0069045927
125	0xbdb29d34	-0.0872139
126	0xbbc5ef62	-0.0060404995
127	0xbab503d4	-0.0013810345
128	0x3bc54b46	0.006020936
129	0x3bdb675f	0.0066956724
130	0x3c185834	0.009298373
131	0x3ce19745	0.027537951
132	0xb98bb940	-0.00026650168
133	0x3b8530b2	0.004064643
134	0x39e8754f	0.0004433789
135	0xba155540	-0.0005696602
136	0xbb2120e3	-0.0024586252
137	0xbb51670e	-0.0031952295
138	0xbca43e45	-0.020049224
139	0xbcb42e46	-0.021994721
140	0xbcb23dac	-0.021757923
141	0xbcd447be	-0.025913116
142	0xbcc9b1c3	-0.024620896
143	0xbcf2e009	-0.029647844
144	0xbc3135f3	-0.010816085
145	0xbc262ce4	-0.010142539
146	0xbc1d7de7	-0.009612537
147	0xbc146a32	-0.009058522
148	0xbc11d315	-0.0089004235
149	0xbc4946aa	-0.012284914
150	0x3b488571	0.0030597115
151	0x3a7514a8	0.00093490863
152	0x3a6f6352	0.00091319263
153	0xba9d09a8	-0.0011981027
154	0x3aea22d1	0.0017863159
155	0xbb2bfd86	-0.002624364
156	0xbc96e907	-0.018421663
157	0xbc98317a	-0.01857828
158	0xbc90ed04	-0.017691143
159	0xbc8c74a7	-0.017145468
160	0xbbdadf42	-0.0066794464
161	0x3bdf1338	0.006807711
162	0x3b2e1889	0.0026564917
163	0x389f9bfb	7.6107644e-05
164	0x3b5edfcc	0.0034007905
165	0x3afed956	0.0019443433
166	0x3a97ab1e	0.0011571383
167	0x3b943ece	0.0045240885
168	0xb9584862	-0.0002062633
169	0x3ae806b4	0.0017702193
170	0xbb13991a	-0.0022521676
171	0x3b22964d	0.0024808825
172	0x3a390dc7	0.0007059243
173	0x3c09692e	0.008386893
174	0x3ba28c93	0.0049606054
175	0x3aaa702e	0.0013003403
176	0x3aac424c	0.0013142317
177	0x3b2d212c	0.0026417477
178	0x3b586594	0.003301953
179	0xba61b2c8	-0.00086097093
180	0x3ad98c86	0.0016597665
181	0x3b355bb4	0.0027673068
182	0xba773142	-0.0009429642
183	0x3a19bb7c	0.0005864424
184	0x39c576e1	0.0003766334
185	0xbb014300	-0.0019723773
186	0xbc3fdb92	-0.0117100645
187	0xbc1fa8cd	-0.009744835
188	0xbb969c0b	-0.0045962385
189	0xbba2f99c	-0.0049736034
190	0xbc01019f	-0.007873922
191	0x38410f17	4.602884e-05
192	0x3bc9ecc0	0.006162256
193	0x3b0877f0	0.0020823441
194	0xbb9db6f8	-0.0048130713
195	0xbbeeff9c	-0.0072936546
196	0xbc115b91	-0.008871929
197	0xbba0a200	-0.0049021244
198	0x39d91220	0.0004140297
199	0x3a67a6f0	0.00088368263
200	0x3baac892	0.005211898
201	0x3baa7652	0.005202093
202	0x3c075685	0.008260374
203	0x3bf96af0	0.007611625
204	0xbbababc6	-0.005238983
205	0xbadc0724	-0.0016786796
206	0x3977ac8a	0.00023620031
207	0xb8f32614	-0.000115942355
208	0x3b8725f8	0.0041243993
209	0x3a3395d5	0.0006850635
210	0x3bdd438b	0.0067524365
211	0x3b57dc59	0.0032937734
212	0xb8d6a65f	-0.00010235304
213	0x3b656a81	0.0035006108
214	0x3adbd825	0.001677279
215	0x3bbc1f0b	0.0057410053
216	0x3cf0f55e	0.029413875
217	0x3cd2e3e4	0.025743432
218	0x3d2ce418	0.042209715
219	0x3d11a98f	0.035562094
220	0x3d10a339	0.03531191
221	0x3d855c26	0.065117165
222	0x3c5362c9	0.01290197
223	0x3cbaa5f4	0.02278421
224	0x3c3da302	0.011574509
225	0x3d44ef15	0.04807957
226	0x3d5a9a2d	0.05336969
227	0x3d56224c	0.0522788
228	0xbc0272c9	-0.007961937
229	0xbc4009f9	-0.011721128
230	0xbc07a17f	-0.00827825
231	0x3c856b16	0.016286414
232	0x3c520607	0.01281882
233	0x3c9a8526	0.018862318
234	0xbb33778e	-0.0027384493
235	0xbbd9125a	-0.006624502
236	0xbc2a4310	-0.0103919655
237	0xbcb231ac	-0.021752201
238	0xbcbc1f10	-0.02296403
239	0xbcc38cce	-0.023870852
240	0x3dd70a30	0.1049999
241	0x3d626408	0.05527118
242	0x3ca64cd5	0.020300308
243	0xbd21caf7	-0.039500203
244	0xbdf15c70	-0.11785209
245	0xbe84877a	-0.2588461
246	0xbcc629e5	-0.024189899
247	0x3bc3cb43	0.0059751584
248	0xbc599bb6	-0.013281753
249	0x3c712f84	0.014720801
250	0xbc65741d	-0.014004734
251	0xbcda450a	-0.026644249
252	0xbbce9b1c	-0.0063051116
253	0xbb6b5624	-0.0035909498
254	0xbb0507bd	-0.0020298802
255	0x3a1cab74	0.0005976476

conv.bias f4 [64]
0	0xbe737c8f	-0.23777984
1	0xbd01b84a	-0.031669892
2	0xbd0036a2	-0.031302102
3	0x3c1a3e4e	0.009414269
4	0x3cad87e0	0.021182954
5	0xbb12936c	-0.0022365702
6	0x3e01d7f8	0.12680042
7	0xbdf9ffd9	-0.12207002
8	0x3cd97bbb	0.026548257
9	0xbbc8193c	-0.006106524
10	0xba70a49b	-0.00091798016
11	0xbbd48a68	-0.006486226
12	0x3f1d79d5	0.61514026
13	0xbd6495ae	-0.05580681
14	0xbbb9c5ab	-0.005669316
15	0xbd140e7b	-0.036146622
16	0xbbd49a44	-0.0064881165
17	0xbdd2b6f8	-0.10288805
18	0x3cd3ef01	0.025870802
19	0xbcf25208	-0.029580131
20	0xbbd49312	-0.0064872587
21	0xbbd47b33	-0.006484413
22	0xbbd4a486	-0.0064893393
23	0xbbd4697c	-0.0064823013
24	0xbdc03f6b	-0.09387096
25	0xbd388bbd	-0.04505514
26	0x3d26277d	0.040565003
27	0xbd8d18ec	-0.06889519
28	0xbbd4a545	-0.006489428
29	0x3d962532	0.07331313
30	0xbc27b4a0	-0.010235935
31	0x3d8be785	0.06831268
32	0xbca9cb35	-0.02072678
33	0x3ec1ff6f	0.37890193
34	0x3d4643eb	0.048404615
35	0xbde775d7	-0.11301773
36	0xbd692dfa	-0.056928612
37	0xbe4062fe	-0.18787763
38	0x3c96630d	0.018357778
39	0xbd9dcf5e	-0.07705568
40	0xbd2d1322	-0.042254575
41	0xbd3ab964	-0.04558696
42	0xbd947db5	-0.07250539
43	0xbbd7cedb	-0.0065859384
44	0x3de9de93	0.11419406
45	0x3bb53c34	0.0055308584
46	0x3de4b3ed	0.111671306
47	0xbbd4b1d2	-0.0064909244
48	0xbd99bfd2	-0.0750729
49	0xbbd4d1a1	-0.0064947163
50	0xbbd4a108	-0.006488923
51	0xbdaa90de	-0.083284125
52	0xbd8f5b8b	-0.06999882
53	0xbd9242dd	-0.071416594
54	0xbc63e4a9	-0.013909497
55	0xbd1f59a5	-0.03890385
56	0xbdc690fb	-0.096956216
57	0xbdce0549	-0.10059602
58	0xbbd47815	-0.0064840415
59	0xbe56c94e	-0.20975229
60	0x395ace78	0.00020867016
61	0xbcc3b8d1	-0.023891838
62	0xbbd490b3	-0.006486976
63	0xbc8bcee6	-0.01706643

ln.weight f4 [64]
0	0x3ebe6fad	0.37194577
1	0x3e496d96	0.1967071
2	0x3ecd9626	0.40153617
3	0x3ecc11ed	0.39857426
4	0x3eed8978	0.46393943
5	0x3e945fd1	0.28979352
6	0x3f107a51	0.5643664
7	0x3eb3c73f	0.3511295
8	0x3efdfda6	0.4960758
9	0x39d66a26	0.00040896347
10	0x3e7bccc5	0.24589832
11	0xb7551412	-1.2700462e-05
12	0x3f5ebb3f	0.87004465
13	0x3e5b1ad9	0.2139696
14	0x39016f12	0.00012343776
15	0x3eaf89bd	0.34284773
16	0xb9f0a01f	-0.00045895667
17	0x3eaf77c7	0.3427107
18	0x3ea31c79	0.3185766
19	0x3e321182	0.17389491
20	0x3784db33	1.5837699e-05
21	0x384a85bf	4.8285114e-05
22	0xba04c806	-0.0005065206
23	0xb9030294	-0.00012494094
24	0x3e83331d	0.25624934
25	0x3e556c68	0.20842135
26	0x3e8c4f34	0.27404177
27	0x3e97f631	0.29680017
28	0xb9c7a427	-0.0003807854
29	0x3f06b224	0.5261557
30	0x3eb7f322	0.35927683
31	0x3eab90df	0.33508965
32	0x3e4c68a6	0.19961795
33	0x3f19a081	0.60010535
34	0x3ecee9c4	0.40412724
35	0x3ecebb7d	0.40377417
36	0x3e73ca72	0.23807696
37	0x3ee30344	0.4433843
38	0x3eeb15e7	0.45915148
39	0x3e9f7dbb	0.31150612
40	0x3e65ddc7	0.22447883
41	0x3e0b1c72	0.1358507
42	0x3e764abd	0.24051948
43	0x385d613f	5.2781073e-05
44	0x3ec498af	0.38397738
45	0x3e82d17b	0.25550446
46	0x3ef9ea0c	0.48811376
47	0xba56ad54	-0.000818928
48	0x3f01cb50	0.50700855
49	0x364adf37	3.0230274e-06
50	0x394fe19d	0.00019825106
51	0x3ea4fd3c	0.32224452
52	0x3e964503	0.29349527
53	0x3e978afa	0.29598218
54	0x3e5f323c	0.21796507
55	0x3e90c1a1	0.28272727
56	0x3ec5c626	0.38627738
57	0x3e937643	0.28801164
58	0xb74a7b24	-1.2068809e-05
59	0x3edb3d12	0.4282003
60	0x3e5ddeb5	0.21666987
61	0x3e89e2a2	0.2693072
62	0xba0305be	-0.0004998109
63	0x3da0481a	0.07826252

ln.bias f4 [64]
0	0x3e107a05	0.14109047
1	0x3aed3e6b	0.0018100267
2	0x3d937546	0.072001025
3	0x3c96dab6	0.018414836
4	0x3e47dd12	0.19517925
5	0x3d83aafd	0.06429098
6	0x3e90dc50	0.28293085
7	0x3e01f074	0.12689382
8	0x3e00687b	0.12539856
9	0x3882a773	6.230073e-05
10	0x3d075cdf	0.033047553
11	0xb8a9bc6a	-8.093643e-05
12	0x3f0bd9b7	0.5462908
13	0x3c36df4e	0.011161638
14	0xb8a19b93	-7.706056e-05
15	0x3c454b0f	0.012041821
16	0x3a01bb17	0.0004948838
17	0x3de28ddc	0.11062214
18	0x3de40f5c	0.11135742
19	0x3d541747	0.05178001
20	0xb7140339	-8.822238e-06
21	0xb878ce89	-5.932016e-05
22	0x3a0c59ed	0.0005353976
23	0x3900460c	0.00012233126
24	0x3d2b07e9	0.04175559
25	0x3cd2d859	0.025737928
26	0x3d0b7c80	0.03405428
27	0x3dd6ed64	0.104944974
28	0x39dfdab1	0.00042696812
29	0x3e0658bb	0.13119785
30	0x3c12b9ac	0.0089554
31	0x3dbb0759	0.09132261
32	0x3c8e782b	0.017391285
33	0x3ec2ab33	0.3802124
34	0xb836ec92	-4.3612505e-05
35	0x3d5c5864	0.053795233
36	0x3d5d212f	0.053986724
37	0x3e089a56	0.13340124
38	0x3e561953	0.20908098
39	0x3de77756	0.113020584
40	0xbcec3514	-0.028833903
41	0xbe0e65d7	-0.13906036
42	0x3d3b1363	0.045672785
43	0xb8890cb7	-6.5350374e-05
44	0x3ded2a4c	0.11580333
45	0x3b485d38	0.003057314
46	0x3e02d29f	0.12775658
47	0x3a59bd4c	0.00083061005
48	0x3e34a42c	0.17640752
49	0xb620f5ea	-2.3984999e-06
50	0xb983c9de	-0.0002513667
51	0xbc9d4604	-0.019198425
52	0x3df7d165	0.12100486
53	0x3d6255f8	0.055257767
54	0x3ccb3f0a	0.024810333
55	0x3d658484	0.05603458
56	0x3d01267a	0.031530835
57	0x3d813060	0.06308055
58	0x36d3baf9	6.3100565e-06
59	0xbef01384	-0.4688989
60	0x3cc45d51	0.023970278
61	0x3d96b7b1	0.07359255
62	0x3a0fd6f9	0.00054870505
63	0x3c9aa1cd	0.01887598

cell.WIt.weight f4 [64, 64]
0	0x3b151466	0.0022747754
1	0xba29e8ad	-0.000648151
2	0xb7c18c9b	-2.3072867e-05
3	0xbc8e5f39	-0.01737939
4	0x3bedfebc	0.0072630327
5	0x3bef62dc	0.007305486
6	0x3c383fd7	0.011245689
7	0x3be9b899	0.0071326015
8	0xbbb0907d	-0.005388318
9	0xb75a26b8	-1.30028275e-05
10	0x3b429c5e	0.0029695253
11	0xb7c5520a	-2.3522432e-05
12	0xba2f7b1f	-0.00066940667
13	0xbb78d65c	-0.0037969565
14	0x38075980	3.226986e-05
15	0xbb1fca17	-0.002438193
16	0x3892412f	6.973964e-05
17	0xbccfb8ad	-0.025356615
18	0x3c0d7e3a	0.008636052
19	0x3c10ca30	0.008837268
20	0x370a8c17	8.258058e-06
21	0xb75bcf30	-1.3101657e-05
22	0x3880a5a6	6.13437e-05
23	0x361e6074	2.3599978e-06
24	0x3a412882	0.0007368402
25	0x3c01e596	0.007928273
26	0xbc32d90f	-0.010916009
27	0xbaca2a4e	-0.0015423985
28	0x38cb2df0	9.688351e-05
29	0xbac4bb2a	-0.0015009393
30	0xbc1a8e69	-0.009433367
31	0xbc1a7dcb	-0.009429405
32	0x3b03cffa	0.0020112977
33	0x3a9bf95d	0.0011899878
34	0xbc03ebad	-0.008051795
35	0xbb5d316e	-0.0033751386
36	0xbbeb70fc	-0.0071850996
37	0x3a81c3b3	0.0009900242
38	0xbc89559c	-0.016764455
39	0x3c1d569c	0.009603169
40	0x3b4516e9	0.003007347
41	0x3b4f57ea	0.0031638094
42	0x3c155567	0.0091146
43	0xb75b0f40	-1.3056968e-05
44	0xbcbd9e75	-0.023146847
45	0xbbdf771d	-0.0068196193
46	0x3b9c7090	0.0047741607
47	0xb785161e	-1.5865135e-05
48	0xba7cf490	-0.000964948
49	0x37267a2e	9.922818e-06
50	0xb8d5b335	-0.000101900114
51	0x3ce66be7	0.028127624
52	0xbc1d1bb2	-0.009589123
53	0x3c556b26	0.013026034
54	0xbb8d37f6	-0.0043096496
55	0xbc139f83	-0.0090101985
56	0x3c485680	0.012227654
57	0xbb858cde	-0.0040756306
58	0xb593c400	-1.1009397e-06
59	0x3c048ce2	0.00809023
60	0xbaaf7bfe	-0.0013388393
61	0xbc15910f	-0.009128823
62	0x3895cbb8	7.142819e-05
63	0xba0b1fc9	-0.00053071656
64	0x2b1f9bea	5.670452e-13
65	0x2a8ac842	2.465268e-13
66	0x2ad350e4	3.7537258e-13
67	0xac0adfa7	-1.9735131e-12
68	0xac631aeb	-3.2273583e-12
69	0xa9e5a62b	-1.01984685e-13
70	0x2ccedf9c	5.8796978e-12
71	0xac4dda9e	-2.925361e-12
72	0x2bcaa430	1.4398534e-12
73	0xa735e5fc	-2.524347e-15
74	0xabbb6bb0	-1.3317038e-12
75	0x27703a3d	3.3338262e-15
76	0x2ca1d086	4.599046e-12
77	0xabff7317	-1.8150784e-12
78	0x2693ce5e	1.025611e-15
79	0xac4b0fc3	-2.8856785e-12
80	0x25a411bc	2.8461482e-16
81	0xaba346ae	-1.1601464e-12
82	0x2c83ddd5	3.7478722e-12
83	0x29ec9dab	1.05078564e-13
84	0x259486f7	2.5765363e-16
85	0x289d133a	1.743884e-14
86	0x26856951	9.257275e-16
87	0x24d55921	9.2525015e-17
88	0xabf44ccd	-1.7358559e-12
89	0xab113f4b	-5.1602185e-13
90	0xaa681720	-2.0613762e-13
91	0xaa4582b8	-1.7542467e-13
92	0x27490fe4	2.7902968e-15
93	0x2c26a4f1	2.368158e-12
94	0x2bbd5355	1.3452387e-12
95	0x2c5cbe72	3.1369599e-12
96	0x2b6034d5	7.9654106e-13
97	0x2cc999dc	5.7298454e-12
98	0xac5f5720	-3.173857e-12
99	0x2c34f7d3	2.5717109e-12
100	0x2b2c159b	6.113666e-13
101	0x2cc06de5	5.469169e-12
102	0xab91211c	-1.0312059e-12
103	0xac66401b	-3.2720552e-12
104	0x2c4b1a15	2.8862514e-12
105	0xabf0f965	-1.7122247e-12
106	0x2bd470ec	1.5094848e-12
107	0x28985895	1.6913806e-14
108	0xac112a4b	-2.0629217e-12
109	0x2bfa2302	1.7773285e-12
110	0x2c255890	2.3497072e-12
111	0xa689ed9a	-9.570687e-16
112	0x2c04feb6	1.8899721e-12
113	0x26402e67	6.667627e-16
114	0xa65e6bae	-7.7167656e-16
115	0x2c682406	3.298918e-12
116	0xab6d064f	-8.420807e-13
117	0x2c61ddf4	3.2097632e-12
118	0x2bc47fd9	1.3962122e-12
119	0x2c6b5a9c	3.3445807e-12
120	0x2c371af6	2.602083e-12
121	0xaa86b804	-2.3930868e-13
122	0x2534a78f	1.5669282e-16
123	0x2c8a21d8	3.9259533e-12
124	0x2c47b1d7	2.8378322e-12
125	0x2c348389	2.5652555e-12
126	0x261029ed	5.0016856e-16
127	0xab145e2e	-5.2710863e-13
128	0x80001b62	-9.823e-42
129	0x80001ba8	-9.921e-42
130	0x80001bb0	-9.932e-42
131	0x00001bd1	9.979e-42
132	0x80001b7c	-9.86e-42
133	0x80001b7b	-9.858e-42
134	0x80001ba3	-9.914e-42
135	0x00001b78	9.854e-42
136	0x80001b7f	-9.864e-42
137	0x80001bb4	-9.938e-42
138	0x80001b83	-9.87e-42
139	0x00001bac	9.927e-42
140	0x80001b9e	-9.907e-42
141	0x80001b82	-9.868e-42
142	0x80001bb3	-9.937e-42
143	0x00001baf	9.931e-42
144	0x00001c3e	1.0131e-41
145	0x80001b7a	-9.857e-42
146	0x80001b9c	-9.904e-42
147	0x00001c70	1.0201e-41
148	0x00001c05	1.0052e-41
149	0x80001bec	-1.0016e-41
150	0x00001b60	9.82e-42
151	0x00001bd5	9.984e-42
152	0x00001b82	9.868e-42
153	0x00001c02	1.0047e-41
154	0x80001ba4	-9.916e-42
155	0x80001c5a	-1.017e-41
156	0x00001ca8	1.028e-41
157	0x80001b85	-9.872e-42
158	0x00001bb7	9.942e-42
159	0x80001b68	-9.832e-42
160	0x00001b68	9.832e-42
161	0x80001baa	-9.924e-42
162	0x00001b8e	9.885e-42
163	0x00001b88	9.876e-42
164	0x00001b60	9.82e-42
165	0x80001b7b	-9.858e-42
166	0x00001b72	9.846e-42
167	0x00001b6c	9.837e-42
168	0x00001bdc	9.994e-42
169	0x80001b8b	-9.88e-42
170	0x00001b89	9.878e-42
171	0x00001bd3	9.981e-42
172	0x00001b65	9.827e-42
173	0x00001ba4	9.916e-42
174	0x00001b6f	9.841e-42
175	0x80001bd4	-9.983e-42
176	0x80001bec	-1.0016e-41
177	0x00001bdd	9.995e-42
178	0x00001b87	9.875e-42
179	0x80001ba3	-9.914e-42
180	0x00001bb4	9.938e-42
181	0x80001bb3	-9.937e-42
182	0x80001bb0	-9.932e-42
183	0x80001c15	-1.0074e-41
184	0x00001b7c	9.86e-42
185	0x00001b7d	9.861e-42
186	0x00001bc4	9.96e-42
187	0x00001b59	9.81e-42
188	0x00001b87	9.875e-42
189	0x80001bd7	-9.987e-42
190	0x00001b7e	9.862e-42
191	0x80001b5d	-9.816e-42
192	0x00001b86	9.874e-42
193	0x00001bcf	9.976e-42
194	0x00001b9e	9.907e-42
195	0x00001bbf	9.953e-42
196	0x80001ba8	-9.921e-42
197	0x80001cac	-1.0286e-41
198	0x80001b88	-9.876e-42
199	0x00001b75	9.85e-42
200	0x00001c34	1.0117e-41
201	0x80001c28	-1.01e-41
202	0x00001b8c	9.882e-42
203	0x80001fd6	-1.142e-41
204	0x00001bab	9.925e-42
205	0x00001b7f	9.864e-42
206	0x80001c03	-1.0049e-41
207	0x80001ca7	-1.0279e-41
208	0x00001b9a	9.902e-42
209	0x80001beb	-1.0015e-41
210	0x80001b69	-9.833e-42
211	0x00001cd1	1.0337e-41
212	0x00002210	1.222e-41
213	0x80001c2a	-1.0103e-41
214	0x00001ba0	9.91e-42
215	0x800020cd	-1.1767e-41
216	0x00001c60	1.0179e-41
217	0x00001c0c	1.0061e-41
218	0x00001bd1	9.979e-42
219	0x00001be7	1.001e-41
220	0x00001bae	9.93e-42
221	0x80001bdc	-9.994e-42
222	0x80001c64	-1.0185e-41
223	0x80001b75	-9.85e-42
224	0x80001c4a	-1.0148e-41
225	0x80001c1a	-1.0081e-41
226	0x80001bdb	-9.993e-42
227	0x00001b98	9.899e-42
228	0x80001c60	-1.0179e-41
229	0x00001c13	1.0071e-41
230	0x00001bb6	9.941e-42
231	0x00001c25	1.0096e-41
232	0x80001b70	-9.843e-42
233	0x00001be6	1.0008e-41
234	0x80001c39	-1.0124e-41
235	0x00001c04	1.005e-41
236	0x80001bb9	-9.945e-42
237	0x80001c54	-1.0162e-41
238	0x00001be1	1.0001e-41
239	0x00001c05	1.0052e-41
240	0x80001be1	-1.0001e-41
241	0x80001c61	-1.018e-41
242	0x00001b94	9.893e-42
243	0x00001c6f	1.02e-41
244	0x00001bba	9.946e-42
245	0x00001c18	1.0078e-41
246	0x00001ce2	1.0361e-41
247	0x00001b89	9.878e-42
248	0x00001bd7	9.987e-42
249	0x80001bd4	-9.983e-42
250	0x80001cf1	-1.0382e-41
251	0x80001b7f	-9.864e-42
252	0x00001b84	9.871e-42
253	0x80001c03	-1.0049e-41
254	0x80001c9f	-1.0267e-41
255	0x80001bce	-9.974e-42

cell.WIt.bias f4 [64]
0	0xbb7c2fb8	-0.003848059
1	0xac87e818	-3.8626984e-12
2	0x80001b95	-9.895e-42
3	0x00001b77	9.853e-42
4	0x80001b80	-9.865e-42
5	0x8000209a	-1.1695e-41
6	0x80001bc9	-9.967e-42
7	0xba3fc1d7	-0.0007314956
8	0x00001d42	1.0496e-41
9	0x80001d1e	-1.0445e-41
10	0xba273bff	-0.00063794845
11	0x80001b9f	-9.909e-42
12	0x80001ed8	-1.1065e-41
13	0x3966f054	0.00022024038
14	0x80001b82	-9.868e-42
15	0x3b046d97	0.0020206922
16	0x3896e209	7.19466e-05
17	0x00001c82	1.0227e-41
18	0x00001bc1	9.956e-42
19	0x00001d25	1.0455e-41
20	0x00001db9	1.0662e-41
21	0x00001bb0	9.932e-42
22	0x80001be0	-1e-41
23	0x80001ba5	-9.917e-42
24	0xb9bc6f7e	-0.00035941222
25	0xbb1ca732	-0.0023903367
26	0xbb1173a8	-0.002219418
27	0x80001bc1	-9.956e-42
28	0x00001bf0	1.0022e-41
29	0x00001ba1	9.911e-42
30	0x00001b72	9.846e-42
31	0x3b7682ca	0.0037614577
32	0x00001b7e	9.862e-42
33	0x80001b76	-9.851e-42
34	0x80001ba7	-9.92e-42
35	0x00001b9c	9.904e-42
36	0x38bb8544	8.9416775e-05
37	0x80001b5b	-9.813e-42
38	0xbb1989bf	-0.002342805
39	0x80001bb2	-9.935e-42
40	0xb990d47e	-0.0002762414
41	0x80001b67	-9.83e-42
42	0x34a3b3e9	3.0492018e-07
43	0x3b9a977d	0.004717766
44	0x80001ba9	-9.923e-42
45	0x80001b9b	-9.903e-42
46	0x80001b60	-9.82e-42
47	0x000021cb	1.2123e-41
48	0x3bb2a6ca	0.0054520117
49	0x397c5c5e	0.00024067002
50	0x00001b98	9.899e-42
51	0x80001bb5	-9.94e-42
52	0x00001e16	1.0793e-41
53	0xb9e44446	-0.00043538417
54	0xb03907c8	-6.7313666e-10
55	0x80001bb6	-9.941e-42
56	0x80001bb6	-9.941e-42
57	0xba9c5d36	-0.0011929634
58	0x00001b6a	9.834e-42
59	0x80001b9c	-9.904e-42
60	0xbb8ec20d	-0.0043566287
61	0xbbd06a99	-0.0063603637
62	0x00001b9f	9.909e-42
63	0x80001b87	-9.875e-42

cell.WZt.weight f4 [64, 128]
0	0xbd281fd2	-0.04104597
1	0x3dde3649	0.10850198
2	0xbc80bd46	-0.015715253
3	0x3d16c19f	0.036805745
4	0xbdfc3d66	-0.12316398
5	0x3d2d08e7	0.042244818
6	0xbd14b73f	-0.03630757
7	0xbc461d80	-0.012091994
8	0xbd966c9d	-0.07344935
9	0x3e10b50e	0.14131567
10	0x3cee8990	0.02911833
11	0x3d4e351a	0.05034361
12	0x3dbae8ca	0.09126432
13	0x3debc4a2	0.11512114
14	0x3dcd446e	0.100228176
15	0x3d326c3a	0.043560244
16	0xbcf63922	-0.03005654
17	0x3d1a40cc	0.03765945
18	0xbe1efd6b	-0.15526359
19	0xbb3962e3	-0.00282877
20	0xbdc6ec7e	-0.09713076
21	0x3e0c28d0	0.13687444
22	0xbdac9315	-0.08426491
23	0xbc891bda	-0.016736913
24	0x3dee1c2c	0.11626467
25	0x3da3519f	0.07974552
26	0xbccef5a7	-0.02526362
27	0x3d642e77	0.055708375
28	0xbdf5d977	-0.12004369
29	0x3dc84b08	0.09779936
30	0xbdfdace0	-0.12386489
31	0xbe33f5be	-0.17574212
32	0xbdbc2a03	-0.091877006
33	0xbe1e0819	-0.15432777
34	0xbded3a32	-0.115833655
35	0xbdd087d2	-0.10182156
36	0xbd530bd2	-0.051524945
37	0x3dbec594	0.09315029
38	0x3d9405c3	0.072276615
39	0x3dfd90b9	0.12381119
40	0x3d52a9f9	0.05143163
41	0xbe063f55	-0.13110097
42	0x3dccae31	0.09994162
43	0xbcf32d10	-0.029684573
44	0x3d8159f1	0.06315983
45	0xbdacf47c	-0.08445069
46	0xbda16b4c	-0.078817934
47	0xbd5574b4	-0.05211325
48	0x3daa7f1e	0.08325027
49	0xbbfc65a6	-0.007702547
50	0xbd87ff54	-0.06640497
51	0x3bcbcfd1	0.006219842
52	0xbbcface2	-0.006337748
53	0x3db6b668	0.0892151
54	0x3e1f1d0f	0.15538429
55	0x3d9cf448	0.076637805
56	0x3dabf0a2	0.083955064
57	0x3e10c633	0.14138107
58	0x3de3cb6a	0.111227825
59	0x3dd556d1	0.104169495
60	0x3d016f66	0.03160038
61	0xbd19f7ae	-0.03758972
62	0xbd77211c	-0.06033431
63	0x3c824b99	0.015905188
64	0xbe008c16	-0.12553439
65	0x3d6e64c0	0.05820155
66	0xbccdb808	-0.025112167
67	0x3b2c8eba	0.002633019
68	0xbdf19c00	-0.11797333
69	0x3d377a5d	0.04479443
70	0xbe1344c6	-0.14381704
71	0x3d87abc2	0.06624557
72	0xbd0546a1	-0.03253806
73	0x3e184a48	0.14872086
74	0xbdcc5908	-0.09977919
75	0xbdc105e7	-0.09424954
76	0x3de1c9ec	0.11024842
77	0x3e12f547	0.14351378
78	0xbd811618	-0.06303042
79	0xbe2ebb75	-0.17063697
80	0xbe245e68	-0.16051638
81	0xbe227b7a	-0.15867415
82	0x3d341d27	0.043973114
83	0xbe0f4fd1	-0.13995291
84	0xbc9ed12e	-0.019386854
85	0xbbb54d13	-0.0055328696
86	0x3d2f0895	0.042732794
87	0xbdfbaf86	-0.12289338
88	0xbd3f7028	-0.04673782
89	0xbda8c7d0	-0.08241236
90	0xbe0e77b2	-0.13912848
91	0x3dd095cf	0.10184824
92	0xbe1519b3	-0.14560585
93	0xbd7d4c19	-0.06184015
94	0xbe159e1b	-0.14611094
95	0x3dcff82e	0.101547584
96	0x3d56b495	0.05241831
97	0x3e2c2dd9	0.16814364
98	0x3da28c21	0.07936884
99	0xbd893949	-0.067003794
100	0xbdd1dcdb	-0.10247203
101	0x3ca6a2bc	0.02034127
102	0xbb8f6f59	-0.0043772873
103	0xbd533edd	-0.051573623
104	0x3e0625c2	0.13100341
105	0x3d9cb5f2	0.07651891
106	0xbdc2931c	-0.09500715
107	0xbde1d907	-0.11027723
108	0x3dc6e363	0.09711339
109	0xbdb71db8	-0.08941215
110	0x3e1aa464	0.15101773
111	0x3e0c4904	0.13699728
112	0x3d844747	0.064589076
113	0xbdcdf570	-0.10056579
114	0x3e10cc7b	0.14140503
115	0x3dd195b1	0.102336295
116	0x3ce8c6e5	0.028415153
117	0xbcda7124	-0.026665278
118	0xbe28a4f6	-0.16469178
119	0xbbb59ebf	-0.0055426056
120	0x3e19c5b9	0.15016831
121	0x3dd45ce6	0.103692815
122	0x3da9af61	0.08285404
123	0xbcd6c867	-0.026218606
124	0x3caad907	0.02085544
125	0x3dc1d55a	0.09464522
126	0xbdcf1fd9	-0.10113496
127	0xbda2ef2b	-0.07955774
128	0xbdf07589	-0.11741168
129	0xbd4eff77	-0.0505366
130	0xbe2e5115	-0.17023118
131	0xbdfdc2e2	-0.123906866
132	0xbd6b6869	-0.05747262
133	0xbdca3766	-0.09873848
134	0xbe06ced4	-0.13164836
135	0xbc06b692	-0.008222239
136	0x3dd1f072	0.102509394
137	0xbe29107f	-0.16510199
138	0x3e201ad0	0.15635228
139	0x3e2a31d0	0.16620564
140	0x3e1e43fc	0.15455621
141	0x3d91ebb6	0.071250364
142	0x3de0e50b	0.109811865
143	0x3dc64398	0.09680861
144	0xbd88e644	-0.06684545
145	0x3dcb6ca2	0.099328294
146	0xbdd3235a	-0.10309477
147	0xbdc76461	-0.09735943
148	0x3ddf81a2	0.10913397
149	0x3da03193	0.078219555
150	0x3e0c2954	0.1368764
151	0xbdec4f34	-0.11538544
152	0x3cb813e5	0.022470424
153	0xbbdcb47c	-0.0067353826
154	0xbdba224a	-0.09088571
155	0xbd061422	-0.032734044
156	0x3dd6b547	0.10483795
157	0x3d65cadd	0.05610167
158	0xbd879d9b	-0.06621858
159	0xbcd13aa1	-0.025540652
160	0x3c865256	0.016396683
161	0x3d948935	0.07252733
162	0xbcb3c343	-0.021943694
163	0x3d2d92ca	0.042376317
164	0xbe34e846	-0.1766673
165	0xbe0bd2d4	-0.13654643
166	0xbdee569c	-0.11637613
167	0xbd787189	-0.06065515
168	0xbe1028a7	-0.14078008
169	0x3d5cbc32	0.053890415
170	0xbd42932a	-0.047503628
171	0x3d5c4a38	0.053781718
172	0x3d2a7e52	0.041624375
173	0xbe113c0a	-0.1418306
174	0xbdb0427c	-0.08606431
175	0xbb03f113	-0.0020132705
176	0x3e18bee9	0.14916576
177	0x3abef0e0	0.0014567636
178	0x3c9376aa	0.01800092
179	0xbd8ac5e8	-0.06776029
180	0xbd8600c1	-0.065431125
181	0x3e055a5c	0.1302275
182	0x3e00aaaa	0.12565103
183	0xbe00607e	-0.12536809
184	0x3c3981ff	0.011322497
185	0x3d40e9bb	0.047097903
186	0x3e1fe6ed	0.15615435
187	0x3dabc651	0.08387435
188	0xbe278882	-0.16360667
189	0x3c221cce	0.009894563
190	0x3e13ed41	0.14445974
191	0xbcea9a6c	-0.028638087
192	0x3e008422	0.12550405
193	0xbd983e03	-0.07433703
194	0xbdd972ac	-0.10617575
195	0x3d648d9e	0.05579912
196	0x3d64b77d	0.05583905
197	0x3d48557b	0.048909646
198	0x3d7c2076	0.061554395
199	0xbde9b8d8	-0.11412209
200	0x3e113f59	0.14184321
201	0xbdb7a1af	-0.089663856
202	0xbdb1e0f0	-0.086854815
203	0xbd386c92	-0.045025416
204	0x3d2e9208	0.042619735
205	0x3e30b31d	0.17255826
206	0x3db3f2d6	0.08786552
207	0xbe06f17b	-0.13178055
208	0xbe2e221b	-0.17005198
209	0x3d97f049	0.07418878
210	0x3e07567f	0.1321659
211	0x3e1280e6	0.14306983
212	0x3d67d1a3	0.05659641
213	0x3d414ca3	0.047192227
214	0x3e01eeea	0.12688795
215	0x3db10fd2	0.086455956
216	0x3e1a1b2f	0.15049432
217	0xbbfd6764	-0.0077332724
218	0xbc95825d	-0.018250639
219	0x3d2bf828	0.041984707
220	0x3e2f2ac0	0.17106152
221	0xbd005067	-0.031326678
222	0x3de22381	0.11041928
223	0x3d8b0da2	0.0678971
224	0x3c9698a7	0.018383337
225	0xbe290579	-0.16505994
226	0x3e20dc86	0.15709123
227	0xbd0f6129	-0.03500477
228	0x3db3f8cd	0.08787689
229	0xbdfa6663	-0.1222656
230	0xbde84786	-0.11341767
231	0xbd915425	-0.070961274
232	0xbd40c5c1	-0.047063593
233	0xbbe3b587	-0.00694913
234	0x3e1f0f4d	0.1553318
235	0x3cf5d4f2	0.030008767
236	0x3d429089	0.04750112
237	0x3cdcdd19	0.026960896
238	0xbe20bee4	-0.15697819
239	0x3d436de2	0.047712214
240	0x3db78b9c	0.08962175
241	0xbe00bd7b	-0.12572281
242	0x3e0e836f	0.13917325
243	0x3d018097	0.031616773
244	0xbe0f837d	-0.14015003
245	0x3d83e70b	0.06440552
246	0xbc7e23a8	-0.015511431
247	0x3e2a59a8	0.16635764
248	0x3df62865	0.120194234
249	0x3da920b6	0.08258192
250	0xbc8ca00b	-0.017166158
251	0x3d7e471a	0.062079526
252	0xbdb05b3b	-0.08611151
253	0x3e105f61	0.14098884
254	0x3c6782dc	0.01413032
255	0xbdb8b241	-0.09018374

cell.WZt.bias f4 [64]
0	0x3f800000	1.0
1	0x3f800000	1.0
2	0x3f800000	1.0
3	0x3f800000	1.0
4	0x3f800000	1.0
5	0x3f800000	1.0
6	0x3f800000	1.0
7	0x3f800000	1.0
8	0x3f800000	1.0
9	0x3f800000	1.0
10	0x3f800000	1.0
11	0x3f800000	1.0
12	0x3f800000	1.0
13	0x3f800000	1.0
14	0x3f800000	1.0
15	0x3f800000	1.0
16	0x3f800000	1.0
17	0x3f800000	1.0
18	0x3f800000	1.0
19	0x3f800000	1.0
20	0x3f800000	1.0
21	0x3f800000	1.0
22	0x3f800000	1.0
23	0x3f800000	1.0
24	0x3f800000	1.0
25	0x3f800000	1.0
26	0x3f800000	1.0
27	0x3f800000	1.0
28	0x3f800000	1.0
29	0x3f800000	1.0
30	0x3f800000	1.0
31	0x3f800000	1.0
32	0x3f800000	1.0
33	0x3f800000	1.0
34	0x3f800000	1.0
35	0x3f800000	1.0
36	0x3f800000	1.0
37	0x3f800000	1.0
38	0x3f800000	1.0
39	0x3f800000	1.0
40	0x3f800000	1.0
41	0x3f800000	1.0
42	0x3f800000	1.0
43	0x3f800000	1.0
44	0x3f800000	1.0
45	0x3f800000	1.0
46	0x3f800000	1.0
47	0x3f800000	1.0
48	0x3f800000	1.0
49	0x3f800000	1.0
50	0x3f800000	1.0
51	0x3f800000	1.0
52	0x3f800000	1.0
53	0x3f800000	1.0
54	0x3f800000	1.0
55	0x3f800000	1.0
56	0x3f800000	1.0
57	0x3f800000	1.0
58	0x3f800000	1.0
59	0x3f800000	1.0
60	0x3f800000	1.0
61	0x3f800000	1.0
62	0x3f800000	1.0
63	0x3f800000	1.0

cell.WRt.weight f4 [64, 64]
0	0x3dda8e8f	0.10671722
1	0x3e45a69c	0.19301838
2	0x3ba470d8	0.005018335
3	0xbe2976ab	-0.16549174
4	0xbba560f3	-0.0050469576
5	0xbe528b5d	-0.20560975
6	0x3da97c39	0.08275647
7	0xbd601af6	-0.054713212
8	0xbe066fc3	-0.13128571
9	0xbe45c490	-0.19313264
10	0xbe5840d9	-0.21118487
11	0x3d251247	0.040300634
12	0xbe218ed2	-0.15777138
13	0x3d5cab61	0.053874377
14	0xbde38088	-0.111085
15	0x3e2f18f2	0.1709936
16	0x3cc842cf	0.02444592
17	0xbe068634	-0.13137132
18	0x3e52982a	0.20565858
19	0x3e22cfcb	0.15899579
20	0xbe2fe941	-0.17178823
21	0x3d4324bb	0.04764245
22	0x3dd1f089	0.102509566
23	0x3e3ad2a3	0.18244414
24	0xbe28d28b	-0.16486566
25	0x3e3e8354	0.18604785
26	0xbe08b97a	-0.13352004
27	0x3e06cd07	0.13164149
28	0x3c5194df	0.012791841
29	0x3d5125e2	0.05106152
30	0x3d82b47d	0.06382082
31	0xbdacbc61	-0.08434368
32	0x3d5a2dd9	0.05326638
33	0xbe37d2f8	-0.17951572
34	0x3e2dd05f	0.16974019
35	0xbe005226	-0.12531337
36	0x3d7ac699	0.061224554
37	0xbc589a86	-0.013220435
38	0xbd4eae72	-0.050459333
39	0x3e16c980	0.14725304
40	0x3d4b5e86	0.04965069
41	0x3e565fc4	0.20934969
42	0x3db4517b	0.08804604
43	0xbdad8ce0	-0.084741354
44	0x3e5935c6	0.21211919
45	0x3dda15fa	0.10648723
46	0xbd66ca94	-0.056345537
47	0xbe0c2509	-0.13686003
48	0xbe29c64f	-0.16579555
49	0x3e321d47	0.17393981
50	0xbe01d150	-0.12677503
51	0x3c863e1b	0.016387036
52	0x3ca4593f	0.020062087
53	0x3d2be119	0.041962717
54	0x3dcca314	0.09992042
55	0xbe534202	-0.20630649
56	0xbe017425	-0.12641962
57	0xbcd27b12	-0.02569345
58	0xbd4291e2	-0.047502406
59	0x3dde8aab	0.108662926
60	0xbd4fa2f6	-0.05069252
61	0x3c982c6c	0.01857587
62	0xbd5e5d5d	-0.054288257
63	0xbd1ecb0b	-0.038767856
64	0x3c7df5ef	0.01550053
65	0xbe257a75	-0.16159995
66	0x3dc6f8a3	0.097153924
67	0x3dddcf29	0.10830528
68	0x3e3234da	0.17402974
69	0xbe1ca087	-0.15295611
70	0xbe2f9700	-0.17147446
71	0x3d808a6c	0.06276402
72	0x3caf7aaf	0.021420805
73	0xbdc62b8d	-0.096762754
74	0x3d91faac	0.0712789
75	0x3de3b3ed	0.111183025
76	0xbe352fef	-0.17694066
77	0xbdcb23fc	-0.09918973
78	0x3d3adc7b	0.045620423
79	0x3de9470a	0.11390503
80	0xbd92af36	-0.07162325
81	0xbd5b868d	-0.053595114
82	0x3dd879fb	0.10570141
83	0x3cc9b1e5	0.02462096
84	0x3d71ed05	0.05906393
85	0xbdf0a939	-0.11751027
86	0xbd384567	-0.044988062
87	0x3d9b444b	0.07581385
88	0xbe2a7cb2	-0.1664913
89	0x3e340424	0.17579705
90	0xbe267cc5	-0.16258533
91	0x3da3b996	0.07994382
92	0xbe105032	-0.14093092
93	0x3e1247c2	0.14285186
94	0xbc7078c4	-0.01467723
95	0xbe4d9726	-0.2007719
96	0xbc0d7b74	-0.008635391
97	0xbd5fcb50	-0.054637253
98	0x3cf03537	0.02932225
99	0x3d6cbbb3	0.05779619
100	0xbe4535cc	-0.19258803
101	0xbe1c394a	-0.15256229
102	0xbc6ef8e6	-0.014585709
103	0xbe291266	-0.16510925
104	0xbdeb5a90	-0.11491883
105	0xbcab276b	-0.02089282
106	0xbda40bd1	-0.08010066
107	0xbd7aa41e	-0.06119167
108	0x3df735f5	0.12070838
109	0xbd9e40ab	-0.07727178
110	0xbe476be1	-0.19474746
111	0x3e438f7b	0.19097702
112	0x3d921458	0.071327865
113	0xbe083662	-0.13301995
114	0xbe47095b	-0.19437163
115	0xbdc68d8f	-0.09694969
116	0x3d8daf86	0.06918244
117	0xbe57c985	-0.21072967
118	0x3e39e512	0.1815379
119	0xbe135762	-0.14388803
120	0xbd4824f5	-0.04886337
121	0xbc9a06f3	-0.018802142
122	0x3d89c0ad	0.06726203
123	0xbdf55e3e	-0.11980866
124	0xbe5733a5	-0.21015795
125	0xbe20b632	-0.15694502
126	0xbd4c767e	-0.04991769
127	0x3d252f66	0.040328406
128	0x3df597ac	0.1199182
129	0xbdcf8e11	-0.10134519
130	0xbd67907e	-0.056534283
131	0xbe0fe042	-0.14050391
132	0xbdbe18a5	-0.09282044
133	0xbdce8cf4	-0.100854784
134	0x3e568334	0.20948488
135	0x3e4f4722	0.20241979
136	0x3d99c4a8	0.07508212
137	0x3e23319f	0.15936898
138	0x3dc520e9	0.09625418
139	0xbd4ff42d	-0.050769974
140	0x3e198fa5	0.14996202
141	0x3e405d70	0.18785644
142	0x3dee088d	0.11622725
143	0x3e021917	0.12704884
144	0xbd527879	-0.051384423
145	0x3e18a165	0.14905317
146	0xbc2bd5fa	-0.010488028
147	0xbd18433c	-0.037173495
148	0xbcb4fba8	-0.022092655
149	0x3e170627	0.1474844
150	0x3e226be3	0.15861468
151	0xbe433f1c	-0.19067043
152	0xbe28cf8f	-0.16485427
153	0x3dd06ffa	0.10177608
154	0xbe3b871c	-0.18313259
155	0xbe418c66	-0.18901214
156	0x3dce0d29	0.10061104
157	0xbe4370d1	-0.19086005
158	0xbc6d56ef	-0.014486059
159	0xbe098576	-0.13429818
160	0xbe30fe97	-0.17284618
161	0xbe0c4bc9	-0.13700785
162	0x3ddd7de0	0.108150244
163	0x3c52d4fa	0.01286816
164	0x3e31c66d	0.1736085
165	0xbb48c325	-0.0030633893
166	0xbe338ff7	-0.17535387
167	0x3e33b490	0.17549348
168	0xbe35cd6c	-0.17754143
169	0x3e0b079b	0.1357712
170	0x3dd3b871	0.10337914
171	0xbd4ce6c7	-0.050024774
172	0xbd4b044b	-0.04956464
173	0xbde40991	-0.11134637
174	0x3dcbef68	0.099577725
175	0x3d9f58a7	0.07780581
176	0xbdbf93f0	-0.09354389
177	0x3d616baf	0.055034336
178	0x3e0b96d7	0.1363176
179	0x3e052189	0.13001074
180	0x3e2c845c	0.16847366
181	0xbdf54a98	-0.11977118
182	0xbe468788	-0.19387639
183	0x3def25f2	0.11677159
184	0xbe29ad00	-0.165699
185	0x3ded435b	0.11585113
186	0xbdd481cb	-0.103763185
187	0xbd19af3c	-0.037520632
188	0xbe320aa7	-0.17386876
189	0x3da125b4	0.078685194
190	0xbe2dba77	-0.16965662
191	0xbd969471	-0.07352532
192	0xbe225d9d	-0.15856023
193	0x3db28363	0.08716466
194	0xbe1ee01b	-0.15515177
195	0x3d8967e8	0.06709272
196	0x3b93574e	0.0044964915
197	0x3d960150	0.07324469
198	0x3d37deff	0.0448904
199	0x3dbd06f1	0.092298396
200	0x3e0ff299	0.14057387
201	0xbd22198e	-0.039575152
202	0xbe49bb8f	-0.19700454
203	0xbd93e493	-0.072213314
204	0xbd4aa470	-0.049473226
205	0x3dbf8b51	0.09352744
206	0x3e3fc0f2	0.18725947
207	0x3e2d58bf	0.16928385
208	0x3df74d6b	0.12075313
209	0xbd11599f	-0.03548586
210	0x3d4f573d	0.050620306
211	0x3d353028	0.04423538
212	0xbd5c4359	-0.053775165
213	0x3e4ae4c9	0.19813837
214	0x3d4c60f3	0.049897145
215	0x3e14938d	0.14509411
216	0xbdb3a2a0	-0.08771253
217	0xbe5a02d5	-0.21290143
218	0x3e18b2a9	0.14911903
219	0x3df52e6c	0.11971745
220	0x3e306a6d	0.17228098
221	0x3e39f3fd	0.1815948
222	0xbd3cff30	-0.046141803
223	0x3e0c60ba	0.13708773
224	0x3d5599f4	0.052148774
225	0x3db7bbfe	0.089714035
226	0xbd8e7e4d	-0.06957684
227	0x3e064cd1	0.1311524
228	0x3e022346	0.12708768
229	0xbdd1f23a	-0.10251279
230	0xbd2ded81	-0.04246283
231	0xbda53f56	-0.08068721
232	0x3e3cfaeb	0.18455093
233	0x3e58eef8	0.2118491
234	0x3d9bf917	0.076158695
235	0xbcca6b7f	-0.024709461
236	0x3e02a655	0.12758763
237	0x3e5186bd	0.20461555
238	0xbdc3d70c	-0.09562501
239	0x3d564898	0.052315325
240	0xbd63380e	-0.05547338
241	0xbe19fe70	-0.15038466
242	0x3e562d34	0.20915681
243	0x3c60caf4	0.013720263
244	0x3dff3a01	0.12462235
245	0x3e56846c	0.20948952
246	0xbe4809e7	-0.19535027
247	0x3da387f7	0.079849176
248	0x3e141954	0.14462787
249	0x3e024443	0.12721352
250	0x3e42c316	0.19019732
251	0x3d3309fd	0.043710697
252	0x3e4aac63	0.19792323
253	0xbd84e1df	-0.06488394
254	0xbe270bbb	-0.16313069
255	0x3db830eb	0.08993705

cell.WRt.bias f4 [64]
0	0x40200000	2.5
1	0x40200000	2.5
2	0x40200000	2.5
3	0x40200000	2.5
4	0x40200000	2.5
5	0x40200000	2.5
6	0x40200000	2.5
7	0x40200000	2.5
8	0x40200000	2.5
9	0x40200000	2.5
10	0x40200000	2.5
11	0x40200000	2.5
12	0x40200000	2.5
13	0x40200000	2.5
14	0x40200000	2.5
15	0x40200000	2.5
16	0x40200000	2.5
17	0x40200000	2.5
18	0x40200000	2.5
19	0x40200000	2.5
20	0x40200000	2.5
21	0x40200000	2.5
22	0x40200000	2.5
23	0x40200000	2.5
24	0x40200000	2.5
25	0x40200000	2.5
26	0x40200000	2.5
27	0x40200000	2.5
28	0x40200000	2.5
29	0x40200000	2.5
30	0x40200000	2.5
31	0x40200000	2.5
32	0x40200000	2.5
33	0x40200000	2.5
34	0x40200000	2.5
35	0x40200000	2.5
36	0x40200000	2.5
37	0x40200000	2.5
38	0x40200000	2.5
39	0x40200000	2.5
40	0x40200000	2.5
41	0x40200000	2.5
42	0x40200000	2.5
43	0x40200000	2.5
44	0x40200000	2.5
45	0x40200000	2.5
46	0x40200000	2.5
47	0x40200000	2.5
48	0x40200000	2.5
49	0x40200000	2.5
50	0x40200000	2.5
51	0x40200000	2.5
52	0x40200000	2.5
53	0x40200000	2.5
54	0x40200000	2.5
55	0x40200000	2.5
56	0x40200000	2.5
57	0x40200000	2.5
58	0x40200000	2.5
59	0x40200000	2.5
60	0x40200000	2.5
61	0x40200000	2.5
62	0x40200000	2.5
63	0x40200000	2.5

cell.WZc.weight f4 [64, 128]
0	0xbc6ad654	-0.014333326
1	0xbc463c46	-0.012099331
2	0xbc6ac757	-0.014329753
3	0x3c2558b8	0.010091953
4	0x3d18b0a3	0.03727783
5	0x3c2b0beb	0.010439853
6	0xbb9eb6a3	-0.0048435493
7	0xbb5fcb6e	-0.0034148353
8	0xbc3f082d	-0.011659664
9	0xb699bea8	-4.5819506e-06
10	0x3cb446ca	0.022006411
11	0x37ba9190	2.224071e-05
12	0xbc18e65f	-0.0093322685
13	0xbb6f5a7c	-0.0036522439
14	0xb8ca8417	-9.656714e-05
15	0xbc0a36ab	-0.008435885
16	0xb95f1326	-0.0002127407
17	0xbc91d130	-0.017799944
18	0xbaeb5c9e	-0.0017956679
19	0x3b17f3a8	0.0023186002
20	0xb7ffd3d3	-3.0497007e-05
21	0x37083308	8.118113e-06
22	0xb93c144f	-0.00017936643
23	0x369c2d39	4.654427e-06
24	0x3b096f16	0.0020970753
25	0x3b6609a8	0.003510097
26	0x3c8598c2	0.016308192
27	0xbbb16abb	-0.0054143346
28	0xb9aed05c	-0.00033343106
29	0x3c1c8664	0.009553526
30	0x3c956fa5	0.018241713
31	0xbc014168	-0.007889129
32	0x3a328010	0.0006809244
33	0x3c82ac2c	0.015951239
34	0xbce28b1a	-0.02765422
35	0xbd381378	-0.04494044
36	0x3ae3c5e4	0.0017377702
37	0x3cb83115	0.022484342
38	0x3c8d524e	0.01725116
39	0x3cd7d173	0.02634499
40	0xbc4ebc9e	-0.012618212
41	0xbc0508af	-0.008119746
42	0xbc81a1d4	-0.015824236
43	0x36f695b4	7.348799e-06
44	0xbc06fa07	-0.008238322
45	0x3c888186	0.016663324
46	0x3a051bc7	0.00050776865
47	0x389f0751	7.5830736e-05
48	0x3c7d8ac9	0.0154749835
49	0xb811200c	-3.460054e-05
50	0x39aa081d	0.00032430972
51	0x3c559384	0.013035659
52	0x3cb18b2c	0.021672808
53	0xbbdc2d1f	-0.006719246
54	0x3b108097	0.0022049302
55	0xbb37d5b4	-0.002805096
56	0x3c3a79e2	0.011381598
57	0xbcef42bb	-0.029206624
58	0x35b44de5	1.3433715e-06
59	0x3c84d2f4	0.016213872
60	0x39f1cc4c	0.00046119315
61	0x3cdf5dfb	0.027266493
62	0xb969826a	-0.00022269195
63	0xbb707b22	-0.0036694487
64	0xbb511d25	-0.003190824
65	0x3c0eb665	0.008710478
66	0xbcc09773	-0.023509717
67	0xb9d0bd29	-0.00039813787
68	0xba0b00e9	-0.0005302565
69	0xbbcdce3c	-0.0062806886
70	0xbbcba708	-0.00621498
71	0x3c5c51e6	0.0134472605
72	0xbb697f16	-0.0035628728
73	0xbca79427	-0.020456387
74	0xbc85a5be	-0.016314384
75	0xba506903	-0.0007950218
76	0x3abe91d6	0.0014539312
77	0x3b0b7e43	0.0021284975
78	0x3caabf08	0.020843044
79	0x3b6df307	0.0036308186
80	0x3bd38ed1	0.006456234
81	0xbcbb3bb0	-0.02285561
82	0x3aa4e995	0.001258182
83	0x3bcd6a15	0.0062687495
84	0x3c6162d2	0.013756471
85	0xba773f96	-0.0009431777
86	0x3ad7c5f2	0.001646219
87	0xbc243f67	-0.010024882
88	0x3cef48db	0.029209545
89	0xbcccb9d1	-0.024990948
90	0x3c5c0b68	0.013430454
91	0xbbc3cd3a	-0.0059753926
92	0x3b6201a1	0.0034485834
93	0xbad90aee	-0.0016559043
94	0xbc70b1be	-0.014690815
95	0xbc59eab5	-0.013300587
96	0xbc435f3d	-0.011924562
97	0xbbd44438	-0.006477859
98	0xbaa82f71	-0.0012831521
99	0x3b6ded3a	0.0036304728
100	0x3ade4d06	0.0016960211
101	0x3b64ccfd	0.0034912222
102	0x3cebedcf	0.02879992
103	0xbbb24f9e	-0.00544162
104	0x3b53298c	0.0032220809
105	0xbb6da5a8	-0.003626207
106	0x3b3b38c1	0.0028567764
107	0xbb1336d4	-0.00224631
108	0xbb0ad519	-0.0021184145
109	0x3c252aa8	0.010080971
110	0x3c08e860	0.008356184
111	0xbbe27fdf	-0.006912216
112	0x3c9927b3	0.018695688
113	0xbbae1163	-0.0053121313
114	0xbc135c3a	-0.0089941565
115	0xbb40050f	-0.002929989
116	0x3b0a6676	0.00211182
117	0x3cc3d353	0.023904478
118	0xbc7db440	-0.0154848695
119	0x3b35018d	0.0027619333
120	0x3c637a79	0.01388418
121	0xbc9db493	-0.019251144
122	0xbcb2c3ff	-0.021821974
123	0x3c3713df	0.011174171
124	0xbc38cb46	-0.011278933
125	0x3c1d67e2	0.009607287
126	0xba969442	-0.0011488276
127	0x3bbf6ae5	0.0058416002
128	0xb9b8a47a	-0.0003521776
129	0xb925741e	-0.00015778883
130	0x39d0d096	0.0003982826
131	0x3a45cb43	0.0007545242
132	0xb9868ba8	-0.00025662524
133	0xbb11aa77	-0.002222685
134	0xba587e94	-0.00082586077
135	0x3ad96501	0.0016585888
136	0xba80a924	-0.0009816033
137	0x363dbc6f	2.8272877e-06
138	0x3aa47812	0.0012547991
139	0x36d1d114	6.2530253e-06
140	0x396511fa	0.00021845839
141	0x39c8e02c	0.00038313994
142	0xb74a3232	-1.2051825e-05
143	0x384bd6d8	4.859906e-05
144	0xb8026cda	-3.109579e-05
145	0xb9bf1f70	-0.00036453782
146	0xba81d603	-0.0009905699
147	0xb99c7f89	-0.0002984966
148	0x358ad18f	1.0342791e-06
149	0x36bf925f	5.7092834e-06
150	0xb78beaae	-1.6679372e-05
151	0x36c2e30f	5.8080836e-06
152	0x3956b97d	0.0002047773
153	0xb9bf80ee	-0.0003652642
154	0x3a0a845a	0.0005284004
155	0xb90831f4	-0.0001298858
156	0xb835bed3	-4.333148e-05
157	0x3a2512aa	0.00062970317
158	0xb8aaa378	-8.13668e-05
159	0xbaa2d064	-0.0012421724
160	0x3a13133b	0.00056104705
161	0x3939028c	0.00017643924
162	0xba10787b	-0.0005511117
163	0xba1a45f9	-0.00058850605
164	0x399efd56	0.00030324858
165	0xbad3cc70	-0.001615895
166	0x3a79cdaa	0.00095292425
167	0xbac5392e	-0.0015046948
168	0x393ef018	0.00018209254
169	0x385f4aac	5.3236887e-05
170	0xbb0f51ed	-0.00218689
171	0x36cf2f8b	6.1746155e-06
172	0xb9fb00f7	-0.0004787517
173	0x3a1c3a53	0.0005959619
174	0x39df6bed	0.00042614285
175	0xb6184f0d	-2.2695779e-06
176	0x3a5fadf0	0.00085326936
177	0x361a3ce1	2.2983224e-06
178	0x38257803	3.9450835e-05
179	0xba07188b	-0.00051534985
180	0x3afdc911	0.0019362291
181	0xb9e87d57	-0.00044343874
182	0xb9cd5fe1	-0.00039172082
183	0x375b3fa0	1.3068231e-05
184	0x3a264eff	0.0006344169
185	0x39d1021c	0.00039865158
186	0x33c1f77c	9.03228e-08
187	0xb88b121e	-6.631411e-05
188	0x39b95ccf	0.00035355097
189	0xb6705291	-3.5810847e-06
190	0xb8254c7e	-3.9410304e-05
191	0x392f2bc2	0.00016705602
192	0x3abd1875	0.0014426844
193	0xbaf21800	-0.0018470287
194	0x3a865264	0.0010247943
195	0x3a1e133b	0.0006030087
196	0xb83e8c26	-4.5430053e-05
197	0xbaf6b97f	-0.0018823593
198	0x3aafbd95	0.001340794
199	0xb8133878	-3.510012e-05
200	0x3a89520b	0.0010476721
201	0x3a81f46d	0.0009914764
202	0xba6a86a9	-0.00089464575
203	0x3a8775ae	0.0010334754
204	0xb88a68da	-6.599883e-05
205	0xba5fd4e3	-0.00085384975
206	0xb9b5fc81	-0.0003471114
207	0xbafd7aae	-0.001933893
208	0xb8c52584	-9.40068e-05
209	0xb90df700	-0.00013538823
210	0x3a28210e	0.0006413617
211	0x396628c9	0.00021949703
212	0xba94b119	-0.0011344283
213	0x3a9e31e9	0.0012069318
214	0xba1b87ee	-0.0005933036
215	0x3a0a435d	0.000527432
216	0x392979cd	0.0001616247
217	0xbb0ea0d6	-0.0021763346
218	0xbae36476	-0.0017348665
219	0x37872ab1	1.6113134e-05
220	0x3a0da448	0.0005403203
221	0xba90f936	-0.0011060599
222	0xba223704	-0.00061880075
223	0xbad21657	-0.0016028386
224	0xbafe6b6a	-0.0019410674
225	0xb9444117	-0.00018716264
226	0x390d50f9	0.00013476973
227	0xbaab3bd0	-0.001306409
228	0xba3239c9	-0.0006798772
229	0x39a86b8c	0.00032123586
230	0x3ad21a93	0.0016029648
231	0x3a6477b4	0.0008715347
232	0xb751419d	-1.24726475e-05
233	0xb7c87132	-2.3894569e-05
234	0xba16d386	-0.00057535653
235	0xb9374ec9	-0.0001748159
236	0xba761251	-0.00093868846
237	0x3ac4d185	0.0015016055
238	0xba60644d	-0.0008559868
239	0x39faebd6	0.00047859427
240	0xbad24467	-0.0016042114
241	0x3abef011	0.0014567395
242	0x3a8b963a	0.0010649629
243	0x3a2a2f0a	0.0006491995
244	0x3b0b57b6	0.0021261997
245	0x389f6160	7.599848e-05
246	0x38a66b26	7.935455e-05
247	0xbafada16	-0.0019138481
248	0xba665f42	-0.0008787998
249	0x3a192d20	0.0005843211
250	0x3b02ad5d	0.0019939758
251	0xb81cca52	-3.7381724e-05
252	0x3a5050fe	0.0007946639
253	0x398ec01c	0.00027227483
254	0x3a3fc8e2	0.00073160056
255	0xbaaee75c	-0.0013344097

cell.WZc.bias f4 [64]
0	0xbc0a9a8e	-0.0084597
1	0xb9098252	-0.00013113886
2	0xbc99cf25	-0.018775532
3	0xba9f9ab6	-0.0012176845
4	0xbcb3d3af	-0.021951525
5	0x39488489	0.0001912286
6	0xb9da7bbe	-0.00041672395
7	0xba261014	-0.0006334793
8	0x3a1a952a	0.0005896861
9	0x3a1f0e84	0.00060675316
10	0x3cbb7402	0.022882465
11	0x3c201ef6	0.009773007
12	0x3a1e0538	0.00060279993
13	0x39d25608	0.0004011842
14	0xb8e8506e	-0.00011077603
15	0xbc9993af	-0.018747179
16	0x39ddc216	0.0004229701
17	0x3ccb6670	0.02482912
18	0x3c3715ee	0.011174662
19	0xb94332a9	-0.00018615522
20	0xbb1af908	-0.002364697
21	0x3ce3e016	0.027816813
22	0x3a6b7759	0.0008982323
23	0x3a421db3	0.0007404938
24	0x3c5bb4c2	0.013409795
25	0x3c64902e	0.013950391
26	0xb618c5f1	-2.2764982e-06
27	0xb938115d	-0.00017554076
28	0x3d262473	0.040562104
29	0xbd171172	-0.03688187
30	0x3cf99690	0.030467302
31	0xbb928b35	-0.004472161
32	0x3d401efb	0.046904545
33	0xbc975d0e	-0.01847699
34	0xb9409256	-0.00018365061
35	0xb9acc00b	-0.0003294948
36	0xb92f896c	-0.00016740494
37	0xbab6966d	-0.0013930328
38	0x3c86e3ba	0.01646601
39	0xbd503e88	-0.050840884
40	0x399b7e7e	0.00029658148
41	0xbd0191d4	-0.031633213
42	0xba26bb03	-0.00063602644
43	0xbd126062	-0.03573645
44	0xb92b4ebf	-0.00016337166
45	0x3bad48bc	0.0052882116
46	0xbb81a310	-0.003956206
47	0xb9a8be0c	-0.00032185053
48	0xb95212db	-0.00020034185
49	0xba0c710c	-0.00053574215
50	0xbd3c1f7d	-0.045928467
51	0xb843a919	-4.6649107e-05
52	0xba7a8193	-0.0009556051
53	0x3940e1f9	0.00018394728
54	0xb9c9c2fe	-0.00038482988
55	0x3cb54a28	0.022130087
56	0x3a937395	0.0011249656
57	0x3a38f5e5	0.0007055684
58	0xbc8b5c2e	-0.017011728
59	0xba579232	-0.0008223384
60	0xba368be0	-0.0006963592
61	0x39714d83	0.00023012426
62	0xb9b46f52	-0.00034415215
63	0xbccdbb51	-0.025113733
